…
 - 44s - loss: 0.4958 - acc: 0.8349 - val_loss: 0.3550 - val_acc: 0.8734

Epoch 00048: val_acc improved from 0.87290 to 0.87340, saving model to model.h5
Epoch 49/50
 - 44s - loss: 0.4920 - acc: 0.8330 - val_loss: 0.3546 - val_acc: 0.8735

Epoch 00049: val_acc improved from 0.87340 to 0.87352, saving model to model.h5
Epoch 50/50
 - 48s - loss: 0.4911 - acc: 0.8336 - val_loss: 0.3534 - val_acc: 0.8730

Epoch 00050: val_acc did not improve
_________________________________________________________________
Layer (type)                 Output Shape              Param #
=================================================================
conv_layer1 (Conv2D)         (None, 28, 28, 32)        832
_________________________________________________________________
max_pooling2d_1 (MaxPooling2 (None, 14, 14, 32)        0
_________________________________________________________________
dropout_1 (Dropout)          (None, 14, 14, 32)        0
_________________________________________________________________
conv_layer2 (Conv2D)         (None, 14, 14, 64)        51264
_________________________________________________________________
max_pooling2d_2 (MaxPooling2 (None, 7, 7, 64)          0
_________________________________________________________________
dropout_2 (Dropout)          (None, 7, 7, 64)          0
_________________________________________________________________
flatten_1 (Flatten)          (None, 3136)              0
_________________________________________________________________
dense_1 (Dense)              (None, 128)               401536
_________________________________________________________________
dropout_3 (Dropout)          (None, 128)               0
_________________________________________________________________
dense_2 (Dense)              (None, 47)                6063
=================================================================
Total params: 459,695
Trainable params: 459,695
Non-trainable params: 0
_________________________________________________________________
Test loss: 0.3702146255184954
Test accuracy: 0.8700462790637379
