…
 - 273s - loss: 0.3706 - acc: 0.8715 - val_loss: 0.2756 - val_acc: 0.8983

Epoch 00029: val_acc improved from 0.89776 to 0.89827, saving model to model_bymerge.h5
Epoch 30/50
 - 279s - loss: 0.3690 - acc: 0.8721 - val_loss: 0.2759 - val_acc: 0.8980

Epoch 00030: val_acc did not improve
Epoch 31/50
 - 280s - loss: 0.3673 - acc: 0.8726 - val_loss: 0.2758 - val_acc: 0.8977

Epoch 00031: val_acc did not improve
_________________________________________________________________
Layer (type)                 Output Shape              Param #
=================================================================
conv_layer1 (Conv2D)         (None, 28, 28, 32)        832
_________________________________________________________________
max_pooling2d_1 (MaxPooling2 (None, 14, 14, 32)        0
_________________________________________________________________
dropout_1 (Dropout)          (None, 14, 14, 32)        0
_________________________________________________________________
conv_layer2 (Conv2D)         (None, 14, 14, 64)        51264
_________________________________________________________________
max_pooling2d_2 (MaxPooling2 (None, 7, 7, 64)          0
_________________________________________________________________
dropout_2 (Dropout)          (None, 7, 7, 64)          0
_________________________________________________________________
flatten_1 (Flatten)          (None, 3136)              0
_________________________________________________________________
dense_1 (Dense)              (None, 128)               401536
_________________________________________________________________
dropout_3 (Dropout)          (None, 128)               0
_________________________________________________________________
dense_2 (Dense)              (None, 47)                6063
=================================================================
Total params: 459,695
Trainable params: 459,695
Non-trainable params: 0
_________________________________________________________________
Test loss: 0.2793751643939708
Test accuracy: 0.8966747476831554

Process finished with exit code 0
